electric_power_load_forecaster.pt (torch, 373652 bytes, 7 tensors)

weight_ih_l0 f4 [600, 1]
0	0xbca17fa6	-0.019714188
1	0xbe87f954	-0.2655741
2	0xbe7aa65e	-0.24477527
3	0x3eb8efad	0.36120358
4	0xbd50cfac	-0.0509793
5	0xbc807958	-0.015682861
6	0xbdef806f	-0.11694419
7	0xbd9679ad	-0.073474266
8	0x3ced6d38	0.028982744
9	0xbb0c95f2	-0.002145168
10	0x3df911ff	0.121616356
11	0xbe213558	-0.15743005
12	0x3e7da763	0.24770884
13	0xbe9d5b55	-0.30733743
14	0x3e02b70c	0.1276514
15	0xbd24dcc8	-0.040249616
16	0xbe0fc964	-0.14041668
17	0x3d569d09	0.052395854
18	0xbd40b96e	-0.04705184
19	0xbe29fbcb	-0.16599958
20	0x3d366d17	0.04453763
21	0x3e4f39bc	0.20236868
22	0xbdd9e81a	-0.10639973
23	0x3c0aa217	0.008461497
24	0xbf11c5dd	-0.5694254
25	0xbe6f36ce	-0.2336075
26	0xbdf80c0a	-0.12111671
27	0x3d994c90	0.07485306
28	0x3d06c98b	0.03290705
29	0xbe9414e9	-0.28922203
30	0x3e1524cf	0.14564823
31	0xbe816364	-0.25271142
32	0x3d33485b	0.043770175
33	0xbe767c8f	-0.24070953
34	0xbdf072a5	-0.11740617
35	0x3dfb9a37	0.122852735
36	0xbed0fbbe	-0.40817064
37	0xbebc910d	-0.36829415
38	0xbcfdc31b	-0.030976823
39	0xbeb61707	-0.35564443
40	0x3e0967cd	0.13418503
41	0xbecd3972	-0.4008289
42	0x3e2c3213	0.16815977
43	0x3cb101b0	0.02160725
44	0x3d30fdb3	0.043210696
45	0xbeb73208	-0.35780358
46	0xbe329412	-0.17439297
47	0xbdc22dd8	-0.094814
48	0x3e519fc0	0.20471096
49	0x3d8f80b0	0.07006967
50	0xbe1c2732	-0.15249327
51	0xbd223d57	-0.03960928
52	0xbd274c3f	-0.0408442
53	0xbe2c904d	-0.16851921
54	0xbdb992bc	-0.090611905
55	0xbe8f06e0	-0.27934933
56	0xbdffb014	-0.12484756
57	0xbe5d7686	-0.21627244
58	0xbdb1f881	-0.086899765
59	0x3e5ae3d0	0.21375966
60	0xbdf786e8	-0.12086278
61	0xbea15a1c	-0.3151406
62	0xbe8d62ab	-0.2761434
63	0xbed040c7	-0.4067442
64	0xbda5b108	-0.08090407
65	0xbf2a23b0	-0.66460705
66	0x3e1a53e0	0.15071058
67	0xbe001f0e	-0.12511846
68	0xbea87faa	-0.329099
69	0x3e57f562	0.210897
70	0x3e34446b	0.17604224
71	0x3d7dcc3f	0.061962362
72	0xbd3402c8	-0.043947965
73	0x3cfc8e3f	0.030829547
74	0xbe1bc535	-0.15211947
75	0xbdba41fb	-0.09094616
76	0xbea002ab	-0.31252035
77	0x3e407507	0.18794642
78	0x3d2ebbf1	0.042659704
79	0xbe1ef955	-0.155248
80	0xbd884175	-0.0665311
81	0xbe79c8ad	-0.24392958
82	0xbe435ee2	-0.19079164
83	0xbef89fd2	-0.48559433
84	0xbdb9cc19	-0.09072132
85	0xbe84d19a	-0.25941163
86	0x3e4e0db2	0.20122412
87	0xbe8d3616	-0.27580327
88	0xbd2d1eaa	-0.04226557
89	0xbe22c906	-0.15896997
90	0xbe43f345	-0.19135769
91	0xbd6aecfc	-0.057354912
92	0x3cc2e66c	0.023791514
93	0x3caf9fdf	0.021438537
94	0x3d16e56c	0.036839887
95	0xbdbb7938	-0.0915398
96	0xbdc16f16	-0.09445016
97	0xbe2093a0	-0.15681314
98	0x3caac661	0.020846548
99	0xbeaa5728	-0.3326962
100	0xbe0b9998	-0.1363281
101	0xbe2c0001	-0.16796876
102	0x3d0a84f4	0.0338182
103	0xbc0fcc6e	-0.008776767
104	0x3e156c63	0.14592128
105	0x3e1f52c4	0.15558916
106	0xbe75a62a	-0.23989168
107	0xbeae4f23	-0.34044752
108	0xbdc7260a	-0.09724052
109	0xbd1c90d0	-0.03822404
110	0xbe97c95a	-0.29645807
111	0xbe4697f8	-0.19393909
112	0xbd61ea00	-0.0551548
113	0xbe22894f	-0.15872692
114	0x3bb26cf4	0.005445117
115	0xbed51228	-0.41615415
116	0xbea3d15a	-0.3199566
117	0x3e29a177	0.165655
118	0xbe3bbd43	-0.18333916
119	0xbf0fc7cc	-0.5616424
120	0xbe8c2fd3	-0.27380237
121	0xbea15d18	-0.31516337
122	0x3c8194a3	0.015817946
123	0x3daf54c0	0.08561087
124	0xbe1d913d	-0.15387435
125	0xbe4f687b	-0.202547
126	0xbe58fe3b	-0.21190731
127	0xbe9994be	-0.29996294
128	0x3e85499d	0.26032725
129	0xbea5d7b7	-0.3239114
130	0xbe8969da	-0.2683857
131	0xbf0e4448	-0.5557294
132	0xbe38cbae	-0.18046448
133	0x3ed5a9ba	0.41731054
134	0xbe5af5c4	-0.21382815
135	0xbc6255c0	-0.01381439
136	0xbedefc49	-0.43551853
137	0xbdc9b1fd	-0.09848402
138	0xbe4e94f8	-0.20174015
139	0xbe49f2ec	-0.19721574
140	0xbdd8439a	-0.10559769
141	0xbe9fa880	-0.31183243
142	0xbe82b35d	-0.25527468
143	0x3b84559a	0.004038525
144	0x3de3efd1	0.11129726
145	0xbdc1d984	-0.09465316
146	0xbe783619	-0.24239387
147	0xbeb0698e	-0.34455532
148	0xbc8fabea	-0.01753803
149	0x3e0fe0e8	0.14050639
150	0xbd298693	-0.041388106
151	0xbe93ceb8	-0.2886865
152	0xbe098a0d	-0.13431568
153	0xbe89e125	-0.26929584
154	0x3e20a587	0.15688144
155	0xbe99b875	-0.30023542
156	0xbd3577d5	-0.044303734
157	0xbdab45b6	-0.08362906
158	0xbe83ff9a	-0.25780946
159	0xbe894b27	-0.2681515
160	0x3d87c90c	0.066301435
161	0xbd0e770f	-0.034781512
162	0xbcd532cb	-0.026025197
163	0xbea9c5d4	-0.33158743
164	0xbe25bb13	-0.16184644
165	0xbd278efa	-0.040907837
166	0xbe94f608	-0.29093957
167	0xbe0c33cf	-0.13691638
168	0x3dfc9837	0.1233372
169	0xbe143751	-0.14474227
170	0x3cb555ca	0.022135634
171	0x3d9cefe9	0.07662947
172	0x3d888804	0.06666568
173	0xbe28461c	-0.16432995
174	0xbeaf7e99	-0.34276274
175	0x3e649dd7	0.22325836
176	0xbeb2c4c4	-0.34915745
177	0xbf1a1393	-0.6018612
178	0x3a029829	0.000498178
179	0xbdfaeec5	-0.12252573
180	0x3d9e182c	0.07719454
181	0x3e23421a	0.15943184
182	0xbe02e7ec	-0.12783784
183	0xbe3d7eeb	-0.18505447
184	0xbc929c29	-0.017896729
185	0x3d80b77d	0.062849976
186	0xbe34c572	-0.17653444
187	0xbdc4111d	-0.095735766
188	0xbe3befec	-0.18353242
189	0xbe87b800	-0.26507568
190	0xbdd30b4b	-0.10304888
191	0xbedb9202	-0.42884833
192	0xbe0c27b4	-0.1368702
193	0x3e646425	0.22303827
194	0xbe274e94	-0.16338569
195	0xbe368145	-0.1782275
196	0xbd5e3678	-0.054251164
197	0xbde35de0	-0.111018896
198	0x39f867ec	0.00047379674
199	0xbe477912	-0.19479778
200	0xbe73ef03	-0.23821644
201	0xbe48425f	-0.19556569
202	0xbd2205e9	-0.039556418
203	0xbc15ee54	-0.00915106
204	0xbe223691	-0.15841128
205	0xbf02216e	-0.5083226
206	0xbea3aaba	-0.31966192
207	0xbea690a9	-0.32532242
208	0xbe416d91	-0.18889453
209	0x3df04a28	0.11732894
210	0xbe3c5046	-0.18389997
211	0xbd00bcb0	-0.031429946
212	0xbe175ca0	-0.14781427
213	0xbdb93a66	-0.09044342
214	0xbe220d09	-0.15825285
215	0xbe4f0ab3	-0.20218925
216	0x3d2c2041	0.042022947
217	0xbea6a6f1	-0.3254924
218	0xbdae1933	-0.085009
219	0xbe529c46	-0.20567426
220	0xbdc8a365	-0.0979679
221	0xbe8b5b6a	-0.2721818
222	0xbd9a552c	-0.075357765
223	0xbdd73016	-0.105072185
224	0xbe60c95f	-0.21951817
225	0x3d9d2978	0.07673925
226	0xbe05ff79	-0.13085736
227	0xbefbd1b8	-0.4918344
228	0xbe73c347	-0.23804961
229	0xbe6b0ce8	-0.22954142
230	0xbda922c4	-0.08258584
231	0x3e3ee847	0.18643294
232	0xbdd9e61b	-0.10639592
233	0xbe1e5b96	-0.15464625
234	0x3d591b5b	0.053004604
235	0xbebfbb6a	-0.37447673
236	0x3d635e15	0.055509645
237	0x3d536919	0.0516139
238	0xbdb2577b	-0.08708092
239	0xbe33686d	-0.17520304
240	0x3d7aff2f	0.06127852
241	0xbe29275b	-0.16518919
242	0xbdcce78e	-0.10005103
243	0xbe645c96	-0.22300944
244	0xbd839461	-0.064247854
245	0xbe4a20ee	-0.19739124
246	0xbc8b3e82	-0.01699758
247	0xbe48c42a	-0.1960608
248	0xbd892f1a	-0.06698437
249	0x3cd85d08	0.026411548
250	0xbd07a03b	-0.033111792
251	0xbe988b8b	-0.29793963
252	0xbe0fd895	-0.14047463
253	0xbe81502e	-0.25256485
254	0xbe1af23b	-0.15131466
255	0xbe9dcb20	-0.30819035

weight_hh_l0 f4 [600, 150]
0	0x3e945631	0.2897201
1	0xbca5ac8e	-0.020223882
2	0x3d291a75	0.041284997
3	0xbe9ba0c4	-0.30396092
4	0xbde72d3a	-0.11287923
5	0xbd88f0d0	-0.06686556
6	0x3d88dcb2	0.06682719
7	0xbeec3b55	-0.46139017
8	0x3e940aaf	0.289144
9	0xbed95ac2	-0.42452055
10	0x3e011013	0.12603788
11	0x3e0b6deb	0.13616149
12	0x3f04415b	0.51662225
13	0x3ec29364	0.38003075
14	0xbe684c6f	-0.22685407
15	0xbe1fa635	-0.15590747
16	0x3e415947	0.18881713
17	0xbbdf6bc1	-0.006818265
18	0xbe39559a	-0.1809906
19	0x3e7e1aaa	0.24814859
20	0xbe8cd1e2	-0.27503878
21	0xbe366a06	-0.17813882
22	0x3be4c836	0.006981875
23	0xbed4df9e	-0.41576856
24	0xbe002c1c	-0.12516826
25	0xbdb50489	-0.08838756
26	0x3dea32d4	0.11435476
27	0x3e8e4799	0.27789
28	0xbdfd741e	-0.12375663
29	0x3e1a6276	0.15076622
30	0x3e8b9de2	0.27268893
31	0xbe8f8c96	-0.28036946
32	0x3f2569ef	0.64614767
33	0x3cf6eb6a	0.030141551
34	0xbe741612	-0.23836544
35	0xbde30a9d	-0.11086009
36	0xbe32e2f6	-0.17469391
37	0x3ed21139	0.41028765
38	0xbda64dea	-0.0812033
39	0xbe115a4a	-0.14194599
40	0xbe7e8a7b	-0.24857514
41	0xbdadd22f	-0.08487355
42	0xbdfd1a3c	-0.123585194
43	0x3d443a98	0.04790744
44	0x3db05549	0.08610017
45	0x3da3fc09	0.08007056
46	0x3dc6befd	0.09704397
47	0x3efdd670	0.49577665
48	0xbd757be2	-0.059932597
49	0x3df3f1f0	0.1191138
50	0x3e71dd90	0.23619676
51	0xbe8c289e	-0.27374738
52	0xbe53ecf3	-0.20695858
53	0xbe5856a5	-0.21126802
54	0x3f16a828	0.58850336
55	0xbd0c3eff	-0.034239765
56	0xbdfbc81c	-0.12294027
57	0xbe2554c7	-0.16145621
58	0xbccb39b6	-0.024807792
59	0xbee7e1e5	-0.4528953
60	0xbe7e8827	-0.24856625
61	0xba6ca226	-0.00090268475
62	0x3cbada4c	0.02280917
63	0x3d31fa63	0.043451678
64	0xbe030648	-0.12795365
65	0x3e3770e2	0.17914155
66	0x3e54b950	0.20773816
67	0xbe261c20	-0.16221666
68	0xbd1e5018	-0.038650602
69	0x3ecd1867	0.4005768
70	0xbe0d5bf9	-0.13804616
71	0xbdd74ad8	-0.10512322
72	0x3df6cd37	0.120508604
73	0xbe654b3a	-0.22391978
74	0xbe4dbf02	-0.20092395
75	0x3dca185b	0.09867927
76	0xbe346b2c	-0.17619008
77	0xbe544749	-0.20730318
78	0xbd3ada5b	-0.045618396
79	0x3f07866f	0.52939504
80	0xbe620dfa	-0.22075644
81	0x3d5b9121	0.053605203
82	0x3da39587	0.079875045
83	0xbe956586	-0.2917902
84	0x3d1f60e2	0.038910754
85	0xbdc2e12b	-0.09515604
86	0xbdbf9cc2	-0.09356071
87	0xbe346bd1	-0.17619254
88	0x3e2e2fcf	0.17010425
89	0xbd701ba4	-0.05862011
90	0xbe4914f7	-0.19636904
91	0x3f300431	0.68756396
92	0xbead9d2b	-0.33908972
93	0xbe8741df	-0.26417443
94	0x3e18d119	0.14923514
95	0x3ea50b8a	0.32235366
96	0x3d9a57a9	0.07536251
97	0xbdbc5e73	-0.09197702
98	0x3d2cbed0	0.04217416
99	0x3e1b0fd8	0.15142763
100	0xbd7ed193	-0.062211584
101	0xbf034f95	-0.5129331
102	0xbeaa9bf9	-0.33322123
103	0xbf0f7257	-0.56033844
104	0xbe2a5785	-0.16634949
105	0xbeca9da8	-0.39573407
106	0xbd494537	-0.049138274
107	0xbdb6aa8a	-0.089192465
108	0xbe409c5e	-0.1880965
109	0x3e277f35	0.1635712
110	0xbd6c305e	-0.057663314
111	0x3c74f1e4	0.014950249
112	0x3e402772	0.18765047
113	0x3e68fbd8	0.22752321
114	0xbddfdcf9	-0.10930819
115	0x3f17d6fd	0.5931242
116	0x3ec2f55f	0.38077828
117	0xbe009758	-0.12557733
118	0x3e0be0ec	0.1366002
119	0x3dcd56fb	0.10026356
120	0x3e14a67c	0.14516634
121	0x3ee0ab0d	0.438805
122	0x3e8b31e3	0.27186498
123	0x3e4fbdad	0.202872
124	0xbe114f4d	-0.14190407
125	0x3d2fa585	0.04288246
126	0xbc9d851b	-0.019228509
127	0x3ecd73f7	0.40127537
128	0xbd06b906	-0.032891296
129	0x3ce87b17	0.028379006
130	0xbec9bfd9	-0.3940418
131	0xbe0b6b40	-0.13615131
132	0x3ef6822d	0.4814619
133	0x3e2aa404	0.1666413
134	0xbd928258	-0.07153767
135	0xbe3b1175	-0.18268378
136	0xbd254cc9	-0.04035643
137	0xbedf343b	-0.43594536
138	0x3d8c43b0	0.06848848
139	0x3d800178	0.0625028
140	0xbdfca21c	-0.123356074
141	0x3db29ed4	0.087217
142	0x3ec30d85	0.38096252
143	0x3ea8bb6a	0.32955486
144	0xbc6889b1	-0.014192984
145	0xbd96ad4f	-0.07357275
146	0x3d84fda5	0.06493691
147	0xbd70ebe7	-0.058818724
148	0xbe3a6623	-0.18203025
149	0xbf024032	-0.50879204
150	0xbe1d0972	-0.15335634
151	0xbea34c30	-0.31894064
152	0x3dd6654d	0.1046854
153	0xbe0e3b56	-0.13889822
154	0x3ea8b43b	0.32950005
155	0x3d998fc6	0.07498126
156	0xbe7d34a6	-0.24727115
157	0xbe1bb608	-0.15206158
158	0x3e02b05f	0.12762593
159	0xbdf50b9f	-0.11965107
160	0x3e3512e8	0.17682993
161	0x3e85caac	0.2613119
162	0x3dffd6dd	0.12492154
163	0x3ea5fffa	0.32421857
164	0xbcc627d6	-0.024188917
165	0xbe296c1e	-0.1654515
166	0x3ec7dc04	0.39035046
167	0xbcfa9a7a	-0.030591238
168	0xbe4ef67a	-0.20211211
169	0x3d7db8f4	0.061943963
170	0xbdf2c526	-0.11854009
171	0xbd3113bb	-0.043231707
172	0xbdd976e0	-0.10618377
173	0xbe8a9f71	-0.2707477
174	0xbe825ec8	-0.25462937
175	0xbed3f31d	-0.41396418
176	0xbe96c460	-0.29446697
177	0xbec65544	-0.38736928
178	0xbeb975b7	-0.36222622
179	0xbd6ba992	-0.05753476
180	0x3e644bf8	0.22294605
181	0xbf059ffa	-0.5219723
182	0x3de8ca36	0.11366694
183	0x3dfd2d24	0.123621255
184	0xbeb47fa5	-0.35253635
185	0xbe161a42	-0.14658454
186	0x3d3ae096	0.045624338
187	0x3e34e097	0.17663799
188	0xbeebff97	-0.46093437
189	0xbe2aa887	-0.1666585
190	0xbe079b6f	-0.13242887
191	0xbf0487ef	-0.5176992
192	0xbd9b8bc8	-0.075950205
193	0xbe8c3f80	-0.27392197
194	0xbe2e8651	-0.17043425
195	0xbe9296cc	-0.28630674
196	0xbe828420	-0.25491428
197	0x3dc4fa0a	0.09618004
198	0xbe03c3d0	-0.12867665
199	0xbe52f53a	-0.20601359
200	0xbe5f43a4	-0.21803147
201	0x3e00776e	0.12545559
202	0x3cd47e22	0.025939051
203	0xbe0b6f45	-0.13616665
204	0x3e9100e4	0.28320992
205	0x3e3cc3c5	0.18434055
206	0x3e8d098a	0.2754634
207	0xbe5c35da	-0.21504918
208	0xbe071cf6	-0.13194641
209	0xbecfcc5d	-0.40585604
210	0xbf1aa449	-0.6040693
211	0xbde24a8c	-0.11049375
212	0x3c082aa2	0.008310946
213	0xbebb61a9	-0.36597946
214	0x3e7f1856	0.24911627
215	0x3db051df	0.08609366
216	0xbe2fe678	-0.1717776
217	0xbe1cb147	-0.15302001
218	0xbc8d415d	-0.017243082
219	0x3ea37be0	0.31930447
220	0xbdc3b33b	-0.0955567
221	0xbd9e8f06	-0.07742123
222	0xbe846d31	-0.25864556
223	0xbd13c4ad	-0.036076237
224	0xbdd65dbd	-0.10467098
225	0xbd8a046b	-0.06739124
226	0x3d61cab2	0.055124946
227	0x3dca412a	0.0987571
228	0x3da2afbe	0.079436764
229	0x3e70e280	0.23523903
230	0xbe76fc97	-0.24119793
231	0xbea8523f	-0.3287525
232	0xbe850d61	-0.2598677
233	0x3d1e37f2	0.038627572
234	0xbdb69a51	-0.08916152
235	0xbd00d243	-0.03145052
236	0xbe59c805	-0.21267708
237	0xbec8dfb9	-0.39233187
238	0xbce8949c	-0.028391175
239	0xbe857a8f	-0.26070067
240	0xbe75eb34	-0.24015504
241	0x3e6aeaf9	0.22941197
242	0x3e3a11e6	0.1817089
243	0x3df3276e	0.11872755
244	0xbe268f4e	-0.16265604
245	0x3f0d8970	0.5528784
246	0xbe534de8	-0.20635188
247	0xbe58e17d	-0.21179767
248	0xbdbe726f	-0.0929917
249	0x3d86c084	0.06579688
250	0xbd91dd11	-0.07122243
251	0xbe11df96	-0.14245448
252	0xbe87705d	-0.26452914
253	0xbe8bbd9d	-0.272931
254	0xbe95ce4b	-0.29258952
255	0xbda7432a	-0.081671074

bias_ih_l0 f4 [600]
0	0xbe0a37f4	-0.13497907
1	0xbddd36fe	-0.108015046
2	0xbec896d4	-0.39177573
3	0x3d918c3d	0.071068265
4	0xbe86918d	-0.2628292
5	0xbe86e2b8	-0.26344848
6	0xbe4b15d2	-0.19832543
7	0xbdcd6256	-0.10028522
8	0xbe01d123	-0.12677436
9	0x3caef848	0.021358624
10	0x3ebcc1c9	0.36866596
11	0xbeaa126e	-0.33217186
12	0x3e610831	0.21975781
13	0xbe21855d	-0.1577353
14	0xbe3c256d	-0.18373652
15	0xbd8026e8	-0.06257421
16	0x3e465ef3	0.19372158
17	0xbe7680ce	-0.24072573
18	0xbdfa7f0d	-0.12231264
19	0xbe8f0cf2	-0.27939564
20	0x3e44089e	0.19143912
21	0x3d93e53d	0.07221458
22	0xbe3475e0	-0.1762309
23	0xbe087bd7	-0.13328491
24	0xbee95311	-0.45571187
25	0x3d5ffef0	0.054686487
26	0x3e1339c7	0.14377509
27	0x3d8147df	0.063125364
28	0xbd6cef6c	-0.057845518
29	0xbebdc22d	-0.37062207
30	0x3ae6a0b6	0.0017595503
31	0xbe203874	-0.15646535
32	0x3da928cb	0.08259734
33	0xbe6c3e38	-0.2307061
34	0xbd9a8134	-0.07544175
35	0x3e0f4362	0.13990548
36	0xbedb076d	-0.42779103
37	0xbeeba776	-0.460262
38	0x3c2d1391	0.010563747
39	0xbebdbf82	-0.3706017
40	0xbe0d181b	-0.13778727
41	0xbe881cb9	-0.26584414
42	0xbe1eb9bf	-0.15500544
43	0x3ead94fa	0.33902723
44	0x3dc1b464	0.09458235
45	0xbe9779a7	-0.29585
46	0xbed0a6a4	-0.40752137
47	0x3d7b50db	0.061356407
48	0x3cb6583a	0.022258867
49	0x3bbed20b	0.005823379
50	0xbe1d8dbc	-0.15386099
51	0xbe56d6f0	-0.2098043
52	0xbe404b17	-0.18778645
53	0xbe0bcd38	-0.13652503
54	0x3e83cb8e	0.25741237
55	0x3c541e0b	0.012946616
56	0xbec6430a	-0.38723022
57	0xbdfb57af	-0.12272584
58	0xbeb2a310	-0.34890032
59	0x3ef306bd	0.47466078
60	0xbc8aa0e8	-0.01692243
61	0xbe74bf37	-0.23901068
62	0xbeb0a40b	-0.34500155
63	0x3d2f3f19	0.042784784
64	0xbe1b102b	-0.15142886
65	0xbeee11cd	-0.46497956
66	0xbde90188	-0.11377245
67	0xbe510a15	-0.20414002
68	0xbec20bb2	-0.37899548
69	0x3e3888d5	0.18020947
70	0xbc97f208	-0.018548027
71	0xbcaab7d2	-0.020839605
72	0xbe66dd12	-0.22545269
73	0xbdf167b2	-0.117873564
74	0xbe01a751	-0.12661482
75	0xbe0812de	-0.13288447
76	0xbeb74176	-0.3579213
77	0xbd98a2b2	-0.07452907
78	0xbe94e11c	-0.29077995
79	0x3d39da60	0.045374274
80	0x3b72def6	0.0037059165
81	0x3d0c110d	0.03419595
82	0xbe1b57a7	-0.15170155
83	0xbe886e5d	-0.266467
84	0xbe35d89c	-0.17758411
85	0xbe99b66a	-0.30021983
86	0x3d4460f9	0.047944043
87	0x3e275676	0.16341576
88	0xbe312216	-0.17298159
89	0x3cc2287b	0.023700943
90	0xbe363745	-0.17794521
91	0x3e01363f	0.1261835
92	0x3dbba21e	0.09161781
93	0xbd8bd798	-0.068282306
94	0xbe0880bd	-0.1333036
95	0x3e235f76	0.15954384
96	0xbd041527	-0.032246735
97	0xbec69f22	-0.38793284
98	0xbe27d7ce	-0.16390917
99	0xbeb18381	-0.34670642
100	0xbe87c6bf	-0.2651882
101	0x3a853a74	0.0010164515
102	0xbdcb347d	-0.09922121
103	0x3d96ff63	0.0737293
104	0xbcbd5c36	-0.023115259
105	0x3e241007	0.16021739
106	0xbc09921f	-0.008396654
107	0xbe415862	-0.18881372
108	0xbe95994c	-0.2921852
109	0xbe1d4055	-0.15356572
110	0xbec66585	-0.38749328
111	0xbee07b1a	-0.4384392
112	0xbea18607	-0.31547567
113	0xbe8fc387	-0.28078863
114	0xbdde2e7d	-0.10848711
115	0xbdf1e60f	-0.11811458
116	0x3e3f3784	0.18673521
117	0xbcf2f07d	-0.02965569
118	0xbda3f623	-0.08005931
119	0xbec9c14d	-0.3940529
120	0xbc0a2052	-0.008430557
121	0x3d66d87b	0.056358796
122	0xbe3a046d	-0.18165751
123	0x3d10b442	0.035328157
124	0x3e4b3aa1	0.19846584
125	0xbed8f198	-0.4237182
126	0xbea68fd5	-0.3253161
127	0x3ec0b6a3	0.3763934
128	0xb93bcc8a	-0.00017909906
129	0xbee507b5	-0.44732442
130	0x3cae9168	0.02130957
131	0xbf0ab983	-0.5418932
132	0xbd0291d8	-0.03187737
133	0x3e125e6b	0.1429383
134	0xbe457950	-0.19284558
135	0xbe50c555	-0.20387776
136	0xbe951b18	-0.29122233
137	0xbd114878	-0.035469502
138	0xbe7b5ba0	-0.24546671
139	0xbe2c9674	-0.16854268
140	0xbe79f6c6	-0.24410543
141	0xbebe0163	-0.37110433
142	0xbe284b1b	-0.164349
143	0x3c3eee3e	0.011653481
144	0xbdd0b44e	-0.101906404
145	0xbe5e9405	-0.21736152
146	0xbe90bc9f	-0.28268906
147	0xbebb7101	-0.36609653
148	0xbe8ee0d4	-0.27905905
149	0xbb6ad8c4	-0.0035834769
150	0xbd9fa0d1	-0.07794345
151	0xbd84c3a2	-0.064826265
152	0xbe007b63	-0.12547068
153	0x3af008ef	0.0018313209
154	0xbda52425	-0.08063535
155	0xbe02f6b2	-0.1278942
156	0xbdfdd837	-0.12394755
157	0xbe131fc9	-0.14367594
158	0xbe929db7	-0.28635952
159	0xbde403c8	-0.11133534
160	0xbd437eae	-0.047728233
161	0xbd3f2997	-0.046670523
162	0xbd387cf2	-0.045041032
163	0xbe3acbf8	-0.1824187
164	0xbdb1f816	-0.08689897
165	0xbe091339	-0.13386239
166	0xbc60be48	-0.013717242
167	0xbd972b3b	-0.073812924
168	0xbde17cb2	-0.11010112
169	0xbd2ca7ec	-0.04215233
170	0xbe1e5d36	-0.15465245
171	0xbd44f9c6	-0.048089765
172	0xbc97ccc4	-0.018530257
173	0xbdb4c3f3	-0.08826437
174	0xbe9888b1	-0.29791787
175	0x3dc62d06	0.09676556
176	0xbd9d52ac	-0.07681784
177	0xbee984b0	-0.45609045
178	0xbc7cee08	-0.01543761
179	0xbe16a0c8	-0.1470977
180	0xbda5179d	-0.080611445
181	0xbd810323	-0.062994264
182	0xbdcb556a	-0.09928401
183	0xbde6541f	-0.112465136
184	0xbe18f68f	-0.14937805
185	0xbd8e1088	-0.06936747
186	0xbe631da5	-0.22179277
187	0xbe1b3150	-0.1515553
188	0xbe68dd2f	-0.22740625
189	0xbd0437c5	-0.03227975
190	0xbdce2bb8	-0.100669324
191	0xbe515bb9	-0.20445146
192	0xbc08b2f1	-0.008343444
193	0xbdf28e83	-0.11843588
194	0xbbddf4ff	-0.0067735906
195	0xbded2108	-0.11578566
196	0xbd8b157c	-0.06791207
197	0xbde032f0	-0.109472156
198	0xbdc3cbeb	-0.09560379
199	0xbe6fbf24	-0.23412758
200	0xbec776a2	-0.38957697
201	0xbd6c2866	-0.057655714
202	0xbe10f05d	-0.14154191
203	0xbdcbff7f	-0.099608414
204	0x3b7f56c2	0.0038961624
205	0xbe2fd5fb	-0.17171471
206	0xbde15b09	-0.11003692
207	0xbbee7ddf	-0.0072781886
208	0xbe2534d7	-0.16133438
209	0xbcffe858	-0.03123872
210	0x3c844c99	0.016149806
211	0xbd829f49	-0.063780375
212	0xbdc3211e	-0.09527801
213	0x3e32f3f0	0.17475867
214	0xbe4224bb	-0.18959324
215	0xbe0802e5	-0.13282354
216	0x3b97381d	0.0046148435
217	0xbd33458c	-0.043767497
218	0xbe1aa389	-0.15101446
219	0xbd050726	-0.03247752
220	0xbe368619	-0.17824592
221	0xbe0e6a9a	-0.13907853
222	0xbe15ec42	-0.14640906
223	0x3bb0ecbc	0.0053993147
224	0xbe3221ad	-0.17395659
225	0xbe0f79af	-0.14011262
226	0xbe1c97b3	-0.15292244
227	0xbe605238	-0.21906364
228	0xbdc30560	-0.095225096
229	0xbdf8e25e	-0.12152551
230	0xbd992fc5	-0.074798144
231	0xb9e0bd64	-0.00042865716
232	0xbd906442	-0.07050373
233	0xbe120187	-0.14258395
234	0xbe2e17a9	-0.17001213
235	0xbe5c000e	-0.21484396
236	0xbd74cc0c	-0.059764907
237	0xbd78b52f	-0.060719665
238	0xbbafd087	-0.0053654346
239	0x3e3b4b55	0.18290456
240	0xbdc3c2e3	-0.09558656
241	0xba1da56e	-0.00060137257
242	0xbd69db08	-0.05709365
243	0xbd927260	-0.071507215
244	0x3d186a44	0.037210718
245	0xbe7087ce	-0.23489305
246	0x3a5ece7a	0.00084993953
247	0xbe3e5df1	-0.18590523
248	0xbc247610	-0.010037914
249	0xbdfa0c63	-0.12209394
250	0xbe3c7e26	-0.18407497
251	0xbbad69fc	-0.0052921753
252	0xbd6d7e19	-0.057981584
253	0xbda20247	-0.079105906
254	0x3c015a65	0.007895087
255	0xbddef455	-0.108864464

bias_hh_l0 f4 [600]
0	0xbda12e82	-0.07870199
1	0xbe08f428	-0.13374388
2	0xbec77d07	-0.38962576
3	0x3d9ec1fb	0.077518426
4	0xbe2570c2	-0.16156295
5	0xbe90c60a	-0.28276092
6	0xbe51c850	-0.2048657
7	0xbde88a17	-0.113544635
8	0xbe1afc1a	-0.15135232
9	0xbc89a28c	-0.016801141
10	0x3ec09140	0.37610817
11	0xbe84acf0	-0.2591319
12	0x3e3b4dba	0.18291369
13	0xbd9b1839	-0.075729795
14	0xbe3d00aa	-0.18457285
15	0xbe07039c	-0.1318497
16	0x3e084c07	0.13310252
17	0xbe352277	-0.17688929
18	0xbd9f02e8	-0.07764226
19	0xbebc88ee	-0.3682322
20	0x3e3ee5ff	0.18642424
21	0x3d34a698	0.04410419
22	0xbe863bba	-0.26217443
23	0xbd3e7a7d	-0.046503533
24	0xbee54628	-0.44780087
25	0x3dd1040c	0.1020585
26	0x3d1f4f98	0.038894266
27	0x3dc879c0	0.09788847
28	0xbdd16982	-0.10225202
29	0xbee37b82	-0.44430166
30	0x3d52c65e	0.05145871
31	0xbe0509a5	-0.1299196
32	0x3e267d1b	0.16258661
33	0xbe62ed77	-0.22160898
34	0x3a420f12	0.00074027583
35	0x3e209a44	0.15683848
36	0xbefe838b	-0.49709734
37	0xbef5d19a	-0.48011476
38	0x3ced4909	0.02896549
39	0xbeca2277	-0.3947942
40	0xbe289b54	-0.16465503
41	0xbe7362be	-0.23768136
42	0xbdb85f5c	-0.09002563
43	0x3eba0fc7	0.36340162
44	0x3d1dfb6d	0.038569856
45	0xbe98b466	-0.29825133
46	0xbec37612	-0.38176018
47	0x3dcdbea8	0.100461304
48	0x3c9a8592	0.01886252
49	0xbc807fbb	-0.015685907
50	0xbe0510f9	-0.12994756
51	0xbe65586e	-0.22397014
52	0xbdc62523	-0.09675052
53	0xbe3313e4	-0.17488056
54	0x3eac3431	0.3363357
55	0x3c053927	0.008131302
56	0xbe9957f1	-0.29949906
57	0xbd8c2404	-0.06842807
58	0xbec7df0d	-0.39037362
59	0x3ee6800e	0.45019573
60	0x3cdf2a0d	0.027241731
61	0xbe969297	-0.29408714
62	0xbe90f4d6	-0.28311795
63	0x3d3ea1e5	0.046541113
64	0xbe0230b8	-0.12713897
65	0xbf064b51	-0.52458674
66	0xbe477525	-0.19478281
67	0xbdbf2fd6	-0.09335296
68	0xbec52c3b	-0.38510308
69	0x3e53e76b	0.20693748
70	0x3cdf5908	0.027264133
71	0x3c0b6ad9	0.008509361
72	0xbe1ddbbd	-0.15415855
73	0xbe0d8e4f	-0.13823818
74	0xbe21a9a8	-0.15787375
75	0xbde731f2	-0.11288823
76	0xbea6401f	-0.32470796
77	0x392a7d8b	0.00016259232
78	0xbea81279	-0.32826594
79	0x3dbdd6d1	0.092694886
80	0xbdd73924	-0.105089456
81	0x3af63e59	0.0018786892
82	0xbe3e8560	-0.18605566
83	0xbe1daf15	-0.1539882
84	0xbe577155	-0.21039326
85	0xbe990e35	-0.29893652
86	0x3d85f23a	0.06540342
87	0x3e6094d6	0.21931776
88	0xbdf5831a	-0.11987896
89	0x3d00dbf3	0.03145976
90	0xbdff7948	-0.124743044
91	0x3dbc1121	0.091829546
92	0x3dcfa24a	0.10138376
93	0xbdb1dce4	-0.0868471
94	0xbdec69a4	-0.11543587
95	0x3e5eb4ea	0.217487
96	0xbd3e33c5	-0.04643609
97	0xbe917c6d	-0.28415242
98	0xbe736b7f	-0.23771475
99	0xbeb77870	-0.35834074
100	0xbe73607f	-0.23767279
101	0x3d18dc89	0.037319694
102	0xbe1d3135	-0.15350802
103	0x3db5fc74	0.08886042
104	0xbd666e74	-0.05625768
105	0x3e2f9127	0.17145215
106	0xbd2b14a9	-0.04176775
107	0xbe656554	-0.22401935
108	0xbe6bcee4	-0.23028141
109	0xbe2109be	-0.15726373
110	0xbeb630aa	-0.35584003
111	0xbebc5f1a	-0.36791307
112	0xbe5a6d58	-0.21330774
113	0xbe67ee6e	-0.22649547
114	0xb98bec48	-0.0002668819
115	0xbd0fe00a	-0.03512577
116	0x3e997dbf	0.2997875
117	0xbcdfeacb	-0.027333638
118	0xbe12d1ff	-0.1433792
119	0xbec95161	-0.393199
120	0xbccbad8e	-0.02486303
121	0x3dbeeebc	0.09322879
122	0xbe1f6947	-0.15567504
123	0x3cfe43f6	0.031038266
124	0x3e8d4a2e	0.27595657
125	0xbed53835	-0.41644445
126	0xbec65c6b	-0.38742384
127	0x3ea97ba0	0.3310213
128	0x3da3c8c0	0.079972744
129	0xbec6d33c	-0.38833034
130	0xbdb210ff	-0.08694648
131	0xbf174fb2	-0.5910598
132	0xbd20baf2	-0.039240785
133	0x3e5ef6f4	0.21773893
134	0xbe8d9256	-0.27650708
135	0xbe6f520b	-0.2337114
136	0xbe874bdd	-0.26425067
137	0xbd93128f	-0.07181274
138	0xbeab201f	-0.33422944
139	0xbe61f2aa	-0.22065225
140	0xbe4a1329	-0.19733872
141	0xbe9c0e85	-0.30479828
142	0xbe24c70e	-0.16091558
143	0x3ad929b3	0.0016568213
144	0xbe095c60	-0.13414145
145	0xbe688ffb	-0.22711174
146	0xbec38a58	-0.38191485
147	0xbea90f94	-0.33019698
148	0xbe3b957e	-0.18318745
149	0xbd8c1d83	-0.068415664
150	0xbd166418	-0.03671655
151	0xbd89eb7e	-0.0673437
152	0xbe2c0da7	-0.16802083
153	0xbcceb25c	-0.025231533
154	0xbd9e6d4f	-0.07735693
155	0xbdb27b55	-0.0871493
156	0xbdf360b6	-0.118836805
157	0xbdd1801c	-0.10229513
158	0xbe96027f	-0.2929878
159	0xbd078042	-0.0330813
160	0xbd9e8dd9	-0.07741899
161	0xbdd589a8	-0.104266465
162	0xbd8ecfac	-0.06973204
163	0xbe26a0ee	-0.16272327
164	0xbda647ae	-0.081191406
165	0xbe58bfb5	-0.2116688
166	0x3b80e236	0.0039332164
167	0x3c70a292	0.014687197
168	0xbccd7f72	-0.025085185
169	0xbd21d01d	-0.039505113
170	0xbdbba5b3	-0.09162464
171	0xbe2142c7	-0.1574813
172	0xbd6f1c4b	-0.05837659
173	0xbddbceb6	-0.10732786
174	0xbe9a38f4	-0.30121577
175	0x3defd931	0.11711348
176	0xbd67065c	-0.05640255
177	0xbf0fb366	-0.56133115
178	0xbd8d6ce6	-0.06905536
179	0xbe1f040b	-0.15528886
180	0xbd75c30a	-0.060000457
181	0xbde04cb6	-0.109521315
182	0xbddf7962	-0.10911824
183	0xbcbd427c	-0.023102991
184	0xbe275725	-0.16341837
185	0xbde97beb	-0.114005886
186	0xbe39ef0e	-0.18157598
187	0xbe29a599	-0.16567077
188	0xbe5fb82e	-0.21847603
189	0xbdc68a40	-0.09694338
190	0xbccb9c3c	-0.024854772
191	0xbe5715a8	-0.21004355
192	0xbc7378d7	-0.014860353
193	0xbb9d4aa6	-0.0048001586
194	0x3c14b562	0.009076448
195	0xbe2f3d3f	-0.17113207
196	0xbd8696cb	-0.0657173
197	0xbe3b019c	-0.18262333
198	0xbde3f43d	-0.11130569
199	0xbe7c4a21	-0.24637653
200	0xbeb7c311	-0.3589101
201	0xbcd02ad7	-0.025411053
202	0xbdfd5fd2	-0.12371792
203	0xbe05bd78	-0.13060558
204	0xbdcd781e	-0.10032676
205	0xbda8e8c8	-0.082475245
206	0xbd43e80f	-0.04782873
207	0xbbffd54b	-0.007807409
208	0xbe102c77	-0.14079462
209	0xbd1ca44c	-0.038242623
210	0x3d6e7c63	0.058224093
211	0xbcf65328	-0.030068949
212	0xbd1190e4	-0.03553857
213	0x3d9cfb52	0.07665123
214	0xbe00666d	-0.12539072
215	0xbe3a8453	-0.1821454
216	0x3bb44cad	0.0055023045
217	0xbd28ed8d	-0.04124217
218	0xbdfb3abf	-0.12267064
219	0xbcf0d523	-0.029398507
220	0xbe2ab038	-0.16668785
221	0xbde65ee5	-0.112485684
222	0xbda53e5c	-0.08068535
223	0xbd95f228	-0.07321578
224	0xbe25547e	-0.16145512
225	0xbe08b749	-0.13351168
226	0xbe1609e7	-0.14652215
227	0xbe2204c3	-0.15822129
228	0xbdc0f3cf	-0.09421503
229	0xbe19f02f	-0.15033029
230	0xbd7c7f80	-0.06164503
231	0x3de29b5b	0.11064788
232	0xbd831dc9	-0.064021654
233	0xbe27239a	-0.16322175
234	0xbe3e6f10	-0.18597054
235	0xbe2e9be4	-0.17051655
236	0xbd912462	-0.070870176
237	0xbd5e5adf	-0.05428588
238	0x3d1e81b4	0.038697913
239	0x3e3e9685	0.18612106
240	0xbde507a6	-0.111830994
241	0xbd9beae9	-0.07613165
242	0xbd0eaa69	-0.034830485
243	0xbdff40c0	-0.12463522
244	0xbd04c3fe	-0.032413475
245	0xbe8793d9	-0.26479986
246	0xbd0b2e12	-0.033979483
247	0xbe405002	-0.1878052
248	0x3ce0d801	0.027446749
249	0xbe0980ae	-0.13427994
250	0xbe80a024	-0.25122178
251	0xbcdb0011	-0.02673343
252	0xbdab5f4c	-0.08367786
253	0xbdfdc3b3	-0.12390842
254	0x3b83bf53	0.0040206104
255	0xbe582ee6	-0.2111164

weight f4 [1, 150]
0	0xbd32466b	-0.043524187
1	0x3bde75cb	0.0067889444
2	0x3c3bff14	0.01147439
3	0x3d97a4a7	0.07404452
4	0x3d61ecb7	0.05515739
5	0xbcecc73a	-0.028903592
6	0xbcd766a0	-0.026294053
7	0x3d202223	0.039095055
8	0xbcecb4d8	-0.028894827
9	0x3d24e271	0.040255014
10	0x3e129809	0.1431581
11	0xbc8fd45b	-0.017557314
12	0xbe2a2e8a	-0.16619316
13	0xbd77866f	-0.06043094
14	0x3a6350b1	0.0008671387
15	0x3d13d679	0.03609321
16	0x3dc4a21e	0.09601234
17	0xbd0f2e04	-0.034955993
18	0x3d8be66e	0.0683106
19	0xbb896c47	-0.004193816
20	0xbe0a6be4	-0.1351772
21	0xbdcce18f	-0.100039594
22	0xbd4a1b19	-0.04934225
23	0x3d481f79	0.04885814
24	0xbc806c4c	-0.01567664
25	0xbe286d69	-0.16447987
26	0xbdca5afe	-0.09880637
27	0x3d7a7046	0.06114223
28	0xbc7962b5	-0.0152212875
29	0x3b8e3346	0.0043396084
30	0x3ddf23ee	0.10895525
31	0xbd910ec1	-0.07082892
32	0xbde5b348	-0.11215836
33	0xbc9bbdf2	-0.019011471
34	0x3d28d0b6	0.041214667
35	0xbe21b992	-0.15793446
36	0x3c1944ff	0.009354829
37	0x3bcd6a69	0.0062687886
38	0x3c2ea539	0.010659509
39	0x3cc8c35b	0.024507215
40	0x3d718fab	0.058974903
41	0xbbe68709	-0.0070351404
42	0x3d532053	0.0515445
43	0xbe465b34	-0.19370729
44	0xbda736c9	-0.08164746
45	0x3b65c362	0.0035059084
46	0xbc0d5426	-0.00862602
47	0xbd4cbab0	-0.049982727
48	0xbd95f4b4	-0.07322064
49	0xbd93f784	-0.07224944
50	0x3bccb50e	0.0062471693
51	0x3ca9eecc	0.02074375
52	0x3d052f1a	0.032515623
53	0x3d0b9996	0.034082018
54	0xbe2e5a0c	-0.17026538
55	0x3d8a8312	0.06763281
56	0xbc6d0f6a	-0.014469007
57	0x3c6b3496	0.014355799
58	0xbbcfaa32	-0.0063374275
59	0x3e2c1c56	0.16807684
60	0xbdb25aad	-0.08708701
61	0x3d6cf76f	0.05785316
62	0xbbd72a7b	-0.0065663434
63	0x3d4a33b4	0.049365714
64	0x3d5f52b4	0.05452223
65	0x39ab942d	0.0003272606
66	0xbda58f0f	-0.08083927
67	0x3da72352	0.08161034
68	0x3c1a889f	0.009431987
69	0xbe1be84f	-0.15225337
70	0x3d1be971	0.038064424
71	0x3c1e4653	0.009660321
72	0xbd43bf68	-0.04778996
73	0x3d3cd8a5	0.046105046
74	0xbda952bb	-0.08267733
75	0xbc981e05	-0.018569002
76	0x3c3c25e6	0.011483645
77	0xbc555d7b	-0.013022776
78	0xbcb0ba83	-0.02157331
79	0xbdbbfef1	-0.091794856
80	0x3d518685	0.05115368
81	0xbe1caae4	-0.15299565
82	0xbe002fb8	-0.12518203
83	0x3d1534d2	0.036427327
84	0xbc7da11a	-0.015480304
85	0x3d151d67	0.036404993
86	0xbddc5877	-0.10759061
87	0xbe3e89ef	-0.18607305
88	0xbd7d3c99	-0.06182537
89	0xbd8057d8	-0.06266755
90	0x3d35d95a	0.044396736
91	0xbd6c3439	-0.05766699
92	0x3dcf8a90	0.101338506
93	0x3d81313c	0.06308219
94	0xbcff6a68	-0.031178668
95	0xbdacaa10	-0.08430874
96	0x3bbe88de	0.0058146557
97	0xbc944a66	-0.018101882
98	0xbd270ece	-0.040785603
99	0x3bf4a107	0.007465485
100	0xbbb8d718	-0.0056408755
101	0x3e04aec2	0.1295729
102	0x3d513646	0.05107715
103	0x3d295bf8	0.041347474
104	0x3c8a86ab	0.016909918
105	0xbd7cfda3	-0.061765324
106	0xbdd88d7b	-0.1057386
107	0x3d8cea81	0.068806656
108	0x3c96e1e5	0.018418262
109	0xbd6bb42b	-0.05754487
110	0xbd363594	-0.04448469
111	0x3cc2d76c	0.023784362
112	0xbd376011	-0.04476935
113	0x3d5d2f17	0.053999986
114	0x3d128b5a	0.035777427
115	0xbd192d83	-0.03739692
116	0xbe539d5f	-0.20665501
117	0xbd1d11da	-0.038347103
118	0xbc8fee19	-0.017569588
119	0xbceb4d74	-0.028723456
120	0xbdfd9c6a	-0.12383349
121	0xbcce784e	-0.02520385
122	0xbd113813	-0.035453867
123	0x3c6ef862	0.014585586
124	0x3e295721	0.16537143
125	0xbc8d4797	-0.01724605
126	0xbd2b0b1a	-0.041758634
127	0xbe3e38f2	-0.1857641
128	0x3c94d802	0.018169407
129	0xb7d2cc20	-2.5129004e-05
130	0x3d446b6a	0.047954
131	0x3b12fd36	0.0022428758
132	0xbd0f6fdd	-0.03501879
133	0x3e161970	0.14658141
134	0xbd1675e3	-0.03673352
135	0x3d2dd62f	0.04244059
136	0xbcfca7fe	-0.030841824
137	0x3d7d1096	0.061783396
138	0x3e0259aa	0.12729517
139	0x3c9907c2	0.018680457
140	0x3dc42107	0.09576612
141	0x3c409a46	0.011755532
142	0xbc97e401	-0.018541338
143	0xbce43bb5	-0.027860502
144	0x3c6c937c	0.01443946
145	0x3c3f5726	0.011678493
146	0xbc403c94	-0.011733193
147	0xbc2d2c08	-0.01056958
148	0xbbc6cda0	-0.006066993
149	0xbde0a500	-0.10968971

hidden f4 [1, 1, 150]
0	0x3cc03009	0.023460405
1	0x3c0db575	0.00864922
2	0x3b33eedf	0.002745561
3	0x3d447b93	0.047969412
4	0x3ccda069	0.025100904
5	0x3ad1a566	0.0015994727
6	0xbd0b3bd7	-0.033992615
7	0xbadb8566	-0.001674813
8	0x3c1158be	0.008871255
9	0xbcc6fde9	-0.024290996
10	0xbc9aafca	-0.01888265
11	0xbb8d9ce5	-0.004321682
12	0x3e60c598	0.21950376
13	0xbcb6f143	-0.02233184
14	0xbc768fb2	-0.015048908
15	0x3c57c7e2	0.013170214
16	0xbcd7f4f1	-0.026361914
17	0x3c1050b0	0.0088083
18	0xbc8d0615	-0.017214814
19	0xbb02ed89	-0.0019978008
20	0xbd92385c	-0.07139656
21	0xbc0a73b9	-0.008450442
22	0xbd3f184b	-0.046654027
23	0xbac47b4c	-0.0014990359
24	0xbbbe7f67	-0.0058135274
25	0xbcb02e25	-0.021506378
26	0x3ce3c335	0.027803043
27	0x3cbeb6ab	0.023280462
28	0xbdfeffae	-0.12451111
29	0xbbd06662	-0.006359861
30	0xbb9fc2ef	-0.004875533
31	0x3cfb7e95	0.030700007
32	0x3de8c844	0.11366323
33	0x3cd39704	0.025828846
34	0x3bf261e3	0.007396923
35	0xbd30338e	-0.043017916
36	0x3be81cb4	0.0070835
37	0xbb18ceab	-0.0023316543
38	0xbd6a87f0	-0.057258546
39	0xbcae4ed1	-0.021277817
40	0x3d80911a	0.06277676
41	0xbb7fce91	-0.0039033035
42	0xbac1b365	-0.0014778195
43	0x3d26f95b	0.040765148
44	0x3ce6f789	0.028194206
45	0x3b2613cd	0.0025341392
46	0xbc44a9ce	-0.012003375
47	0x3d3d1969	0.04616681
48	0xbd00a7eb	-0.03141014
49	0xbd6116d9	-0.05495343
50	0xb9cc2aba	-0.00038941746
51	0x3b29f3ae	0.0025932598
52	0x3bcf751f	0.0063311006
53	0xbb950bc4	-0.0045485217
54	0xbc7c317c	-0.015392657
55	0xba028377	-0.0004978696
56	0x3c33266e	0.010934455
57	0x3daa0212	0.08301176
58	0xbc7978f4	-0.015226591
59	0xbc8c5383	-0.017129665
60	0xbc5f8d56	-0.013644537
61	0xbc176400	-0.00924015
62	0xba9bac06	-0.0011876829
63	0x3da9d07a	0.08291717
64	0x3d8fe594	0.070262104
65	0xb623091e	-2.42942e-06
66	0xbdb8bd83	-0.090205215
67	0xbb99d0d3	-0.0046940832
68	0x3b54881c	0.003242976
69	0xbd16a777	-0.0367808
70	0xbc1eaa1e	-0.009684114
71	0x3d78cd07	0.060742404
72	0xbc9d8035	-0.019226173
73	0x3c9fedf7	0.01952265
74	0xbcb52919	-0.022114323
75	0x3c1276a6	0.008939421
76	0x3c7ae1a8	0.01531259
77	0x3cbd4318	0.023103282
78	0x3b78d554	0.003796895
79	0x3c3f583f	0.011678754
80	0x3c76d8b0	0.015066311
81	0xbdbeaa2a	-0.093098
82	0xbd2b2aea	-0.041788973
83	0xbcb4c091	-0.022064479
84	0xbb443c57	-0.0029943192
85	0x3ca10470	0.019655436
86	0xbcce5ebd	-0.02519166
87	0xbd520576	-0.05127474
88	0xbdfe6223	-0.12421062
89	0x3dcbba0f	0.09947597
90	0x3c202a21	0.009775669
91	0x3e650bab	0.22367732
92	0xbda6d596	-0.08146207
93	0xbd0fe808	-0.03513339
94	0xbda3d39e	-0.07999347
95	0xbc64e6dd	-0.013971058
96	0xbdd3e646	-0.103466555
97	0xbc53f379	-0.012936466
98	0xbd673541	-0.05644727
99	0xbbc43990	-0.0059883073
100	0xbc29f735	-0.01037388
101	0xbc8e3d82	-0.017363314
102	0xbbc7df32	-0.006099605
103	0xbca46bcb	-0.020070931
104	0x3db4ef2d	0.08834682
105	0xbcf4a232	-0.029862497
106	0xbcd27260	-0.025689304
107	0xbcaf559d	-0.021403128
108	0x3c0285de	0.007966487
109	0xbbfecb75	-0.007775719
110	0xbc686aa9	-0.014185586
111	0x3c89ff38	0.01684533
112	0xbd15837f	-0.036502358
113	0x3cc025af	0.023455469
114	0x3a572076	0.0008206436
115	0x3d4bdc08	0.049770385
116	0x3de09981	0.109667785
117	0xbcd44f4f	-0.025916724
118	0x3d8d5913	0.06901755
119	0x3984ddfc	0.00025342393
120	0x3c1ad8ea	0.00945113
121	0xbc9f2bd3	-0.019430077
122	0xbcc74302	-0.024323944
123	0x3d6cdf51	0.05783016
124	0xbc283f8f	-0.01026906
125	0xbbcd7dcd	-0.0062711
126	0xbc90bf16	-0.017669242
127	0xb956f7aa	-0.00020500892
128	0x3df7658c	0.120799154
129	0xba044fa9	-0.00050472707
130	0xbd68763a	-0.056753375
131	0x3c23639b	0.009972478
132	0x3c3af4a7	0.011410869
133	0xbe3104b6	-0.17286953
134	0xbc9076fc	-0.017634861
135	0x3ccaf79e	0.024776276
136	0xba816ebc	-0.000987492
137	0xbd721de3	-0.059110533
138	0x3d0b99a1	0.03408206
139	0x3cb487b0	0.022037357
140	0x3c970ced	0.01843878
141	0xbb869d32	-0.0041080946
142	0x3c9cd58e	0.0191448
143	0x3da98027	0.08276396
144	0x3ca572dd	0.020196373
145	0x3ceda7ba	0.029010642
146	0x3caba1e5	0.02095122
147	0x3ce2dbd1	0.027692707
148	0x3bd87908	0.006606225
149	0xbc22368e	-0.009900702

hidden f4 [1, 1, 150]
0	0x3d49cde2	0.04926861
1	0x3cdf3eac	0.027251564
2	0x3c2410b2	0.010013746
3	0x3db4f01a	0.08834858
4	0x3d76f9da	0.06029687
5	0x3b97e69d	0.0046356455
6	0xbdb31d70	-0.08745849
7	0xbb63555c	-0.003468833
8	0x3cc21ee7	0.023696376
9	0xbd37b564	-0.044850722
10	0xbce4887c	-0.027897112
11	0xbc676377	-0.014122835
12	0x3ea585a9	0.32328537
13	0xbd3e58f6	-0.04647156
14	0xbd202a9d	-0.03910314
15	0x3cf7a8e5	0.030231902
16	0xbd50311f	-0.050828096
17	0x3cb9bbc7	0.022672547
18	0xbd10a6a2	-0.035315163
19	0xbbdcb5b7	-0.0067355293
20	0xbdf57317	-0.11984842
21	0xbc6351bc	-0.013874467
22	0xbdebb73b	-0.11509558
23	0xbb40fc38	-0.002944721
24	0xbcb2ce7a	-0.021826971
25	0xbd124523	-0.035710465
26	0x3d5883a2	0.05285991
27	0x3d20dd04	0.039273277
28	0xbe8e5bdf	-0.27804467
29	0xbcb04bd8	-0.02152054
30	0xbc182a5d	-0.009287444
31	0x3d8bf78b	0.068343244
32	0x3e42a9f7	0.19010149
33	0x3d8d31d1	0.06894267
34	0x3c7e46a5	0.015519773
35	0xbd93b2f7	-0.07211869
36	0x3cf1778f	0.029475955
37	0xbc23d29f	-0.009998946
38	0xbe087775	-0.13326819
39	0xbd6a8914	-0.057259634
40	0x3e09a8bf	0.13443278
41	0xbc424144	-0.011856381
42	0xbb641605	-0.0034803164
43	0x3d62ebfc	0.055400833
44	0x3d597461	0.053089503
45	0x3c03f856	0.008054813
46	0xbd1532ab	-0.036425274
47	0x3daf1581	0.085490234
48	0xbd6dd167	-0.05806103
49	0xbdd46d3a	-0.10372396
50	0xba61515f	-0.0008595194
51	0x3bbf1bd9	0.005832177
52	0x3c82ec7f	0.01598191
53	0xbc49360c	-0.012280952
54	0xbcadfff0	-0.021240205
55	0xba797fc1	-0.0009517633
56	0x3d10df8a	0.035369433
57	0x3e4238da	0.18967
58	0xbd601dc7	-0.054715898
59	0xbcc9ca3f	-0.024632571
60	0xbce901b5	-0.028443197
61	0xbccad80c	-0.024761222
62	0xbb6b1c69	-0.0035875088
63	0x3e357e92	0.17724064
64	0x3e3947be	0.18093774
65	0xb7344dfe	-1.0746995e-05
66	0xbe419683	-0.18905072
67	0xbc47eb7e	-0.012202142
68	0x3c3a18fa	0.011358494
69	0xbd64758f	-0.055776175
70	0xbc99ef12	-0.018790755
71	0x3e066791	0.13125445
72	0xbd3fc2cc	-0.046816632
73	0x3d23ee50	0.040022194
74	0xbd3c4dc0	-0.045972586
75	0x3cb71888	0.022350565
76	0x3d56c8a2	0.052437432
77	0x3d5e4ae0	0.054270625
78	0x3c3a491f	0.0113699725
79	0x3cb3dd56	0.021956127
80	0x3cf9b4a7	0.03048165
81	0xbe2b0def	-0.16704534
82	0xbdcb88e4	-0.09938219
83	0xbd5fcebf	-0.054640528
84	0xbbe8ffaa	-0.0071105557
85	0x3d6cc01e	0.057800405
86	0xbd3857fc	-0.045005783
87	0xbdaaf4ed	-0.08347497
88	0xbe898e95	-0.26866594
89	0x3e735924	0.23764473
90	0x3cabcc0b	0.020971319
91	0x3eb6c12b	0.3569425
92	0xbe09f783	-0.13473324
93	0xbd840783	-0.06446745
94	0xbe2e5b2f	-0.17026971
95	0xbccfc7bb	-0.025363794
96	0xbe823bb7	-0.25436184
97	0xbd3fc702	-0.046820648
98	0xbe046f1d	-0.12933011
99	0xbc910bab	-0.017705759
100	0xbce7c00a	-0.028289814
101	0xbd00389f	-0.031303998
102	0xbc498846	-0.0123005565
103	0xbd1ba91f	-0.038003083
104	0x3e299e71	0.16564347
105	0xbd3941c8	-0.04522875
106	0xbd44331e	-0.04790031
107	0xbd612666	-0.05496826
108	0x3cb0a155	0.021561304
109	0xbc8b13ed	-0.016977275
110	0xbd2e8709	-0.04260925
111	0x3d85c867	0.06532364
112	0xbdc60c1d	-0.09670279
113	0x3d907e8e	0.070553884
114	0x3adcf3f9	0.0016857377
115	0x3dbc1139	0.091829725
116	0x3e2db23c	0.16962522
117	0xbd719a19	-0.05898485
118	0x3e21a6ac	0.15786237
119	0x3a858531	0.0010186789
120	0x3c98f340	0.018670678
121	0xbd185313	-0.0371886
122	0xbd7eccb1	-0.062206928
123	0x3de352cd	0.11099777
124	0xbc77c858	-0.015123449
125	0xbc9cedf9	-0.019156443
126	0xbd791c1c	-0.060817823
127	0xb9a4176c	-0.00031297968
128	0x3e6e65c0	0.23281002
129	0xbaf63fc8	-0.0018787319
130	0xbdde2389	-0.108466215
131	0x3d393162	0.04521311
132	0x3cb21c19	0.021741914
133	0xbe9c48ff	-0.30524442
134	0xbd3c6052	-0.045990296
135	0x3d7271f8	0.05919072
136	0xbb8c8c42	-0.004289181
137	0xbdf20cd5	-0.11818854
138	0x3dd4866f	0.10377204
139	0x3d7045b5	0.058660228
140	0x3d31235e	0.04324662
141	0xbc4d26cf	-0.01252146
142	0x3d17ff4c	0.037108704
143	0x3e4d8554	0.20070392
144	0x3d2ea878	0.042641133
145	0x3d9dc300	0.07703209
146	0x3d8f3273	0.06992044
147	0x3dabf53f	0.08396386
148	0x3c936240	0.017991185
149	0xbd030fff	-0.031997677
